Advanced House Price Prediction/HouseWeights.pt (torch, 38554 bytes, 21 tensors)

embeds.0.weight f4 [15, 8]
0	0xbbb2c88a	-0.005456035
1	0x3d7a2f6e	0.06108039
2	0xbb724eff	-0.0036973355
3	0xbd774036	-0.06036397
4	0x3c2aa945	0.010416334
5	0x3d940a45	0.07228521
6	0x3d8a4845	0.067520656
7	0xbdc1b9fd	-0.094593026
8	0x3d09a63a	0.03360579
9	0xbd67f998	-0.056634516
10	0xbe3cbb28	-0.1843077
11	0xbf7d539e	-0.98955715
12	0x3e149fba	0.14514056
13	0x3e5a35c6	0.21309575
14	0x3d93a2a6	0.07208757
15	0x3d2f3ecc	0.042784497
16	0xbfa23d94	-1.2675042
17	0x3d728e5c	0.059217796
18	0x3cdc91d7	0.02692501
19	0x3b785108	0.0037890095
20	0xbf821d7b	-1.0165247
21	0xbe9f3197	-0.31092522
22	0x3f1ff2ad	0.6247967
23	0x3f8965f9	1.0734245
24	0xbf047c52	-0.517522
25	0x3f9777f3	1.1833481
26	0xbf1fda1c	-0.62442183
27	0xbf42c26a	-0.760779
28	0xbe9f421d	-0.31105128
29	0xbf159c5d	-0.58441716
30	0xbe98ee8e	-0.29869503
31	0x3f48a170	0.78371334
32	0xbf987bdd	-1.19128
33	0x3f3776a2	0.71665394
34	0xbec0ba2b	-0.37642035
35	0xbda5a576	-0.080882
36	0x3b19d770	0.0023474358
37	0x3d81bdfa	0.06335063
38	0x3fa212c0	1.2661972
39	0xbf400fe4	-0.7502425
40	0x3d49cf33	0.049269866
41	0xbd7250c0	-0.05915904
42	0xbd9136f3	-0.07090559
43	0x3cdc6895	0.026905337
44	0x3e4d3641	0.20040227
45	0x3df5ee60	0.12008357
46	0xbac14ae6	-0.0014747053
47	0x3bbdf41b	0.005796922
48	0xbf0cf00d	-0.5505379
49	0xbf073e0d	-0.52829057
50	0x3f7a78b9	0.9784046
51	0x4009f6a3	2.1556785
52	0xbdcee027	-0.101013474
53	0xbe320d9e	-0.17388007
54	0xbe2d034a	-0.16895786
55	0x3dde79ca	0.10863073
56	0x3f0afea5	0.54294807
57	0xbe86a3ce	-0.26296848
58	0x3e22403b	0.15844814
59	0xbeffd62c	-0.49968088
60	0xbeb369ec	-0.3504175
61	0xbedd5342	-0.43227583
62	0xbeb8cfbd	-0.36095992
63	0x3ebb2dda	0.3655842
64	0x3eb64126	0.3559658
65	0xbd7e0a5c	-0.0620216
66	0xbea2abc5	-0.31771675
67	0x3e8c9aa6	0.27461737
68	0xbdd5c999	-0.10438842
69	0xbe13cf47	-0.14434539
70	0xbdff5114	-0.12466636
71	0xbd9f1218	-0.07767123
72	0x3f593805	0.84851104
73	0x3e76dece	0.2410843
74	0xbf743f70	-0.954093
75	0x3eb5fa0b	0.3554233
76	0xbd1590d7	-0.036515083
77	0xbf43e19a	-0.76516116
78	0xbe9d1760	-0.30681896
79	0xbf02047f	-0.5078811
80	0x3f292940	0.6607857
81	0x407319a2	3.7984395
82	0xc06037b1	-3.5033991
83	0xbeface9d	-0.48985758
84	0x3f3b590d	0.73182756
85	0x3f60ccea	0.87812674
86	0x3f033b8d	0.5126274
87	0xc0802adf	-4.0052333
88	0x3e015f4b	0.12634008
89	0xbe38316a	-0.179876
90	0x3e214363	0.15748362
91	0x3e274442	0.16334632
92	0xbf42bb1c	-0.76066756
93	0xbf235d34	-0.6381409
94	0xbe0c626e	-0.13709423
95	0x3e07a85a	0.13247815
96	0xbd91d7a0	-0.07121205
97	0x3ef61dde	0.48069662
98	0xbce43762	-0.02785844
99	0x3ddc4714	0.107557446
100	0x3cc458e7	0.023968173
101	0x3d9a262c	0.07526812
102	0x3f58117b	0.84401673
103	0xbf4b69e1	-0.79458433
104	0xbe2612e6	-0.16218147
105	0x3b9bb196	0.0047513945
106	0xbe20383d	-0.15646453
107	0xbec4c19d	-0.38428965
108	0x3d7a0f11	0.061049525
109	0xbd1f6035	-0.03891011
110	0xbefdbdc5	-0.49558845
111	0xbf1fd3dc	-0.62432647
112	0xbf185f8f	-0.5952081
113	0x3fd811dd	1.6880451
114	0xbe035f11	-0.12829234
115	0xbf162a21	-0.58658034
116	0x3d4bd254	0.04976113
117	0x3f1cf918	0.61317587
118	0x408e2cc1	4.442963
119	0xc01a4bfb	-2.4108875

embeds.1.weight f4 [5, 3]
0	0x402a0450	2.6565132
1	0x3fb348d3	1.4006599
2	0x3fb14818	1.3850126
3	0xbe849c48	-0.25900483
4	0xbf45fd4d	-0.7733963
5	0xbd84acd3	-0.06478276
6	0xbf0bc8c8	-0.5460324
7	0x3ed12233	0.40846404
8	0x3f4f61e4	0.81008744
9	0xbab3b59d	-0.0013710741
10	0x3c1f2938	0.009714417
11	0xbd3a34d3	-0.045460533
12	0x3ec1d191	0.378552
13	0x3e015dcf	0.12633441
14	0xbf8049e3	-1.0022548

embeds.2.weight f4 [2, 1]
0	0x4008eff0	2.1396446
1	0x3c5b910b	0.01340128

embeds.3.weight f4 [4, 2]
0	0x3e9d04f9	0.30667856
1	0xbe99edea	-0.30064327
2	0x3eb94e2f	0.36192462
3	0xbeec188d	-0.4611248
4	0x3ea47e54	0.3212763
5	0x3fd5c2a0	1.670002
6	0xbe8f2a1f	-0.27961823
7	0x3e9bf897	0.30463096

bn_cont.weight f4 [5]
0	0x3f1ba679	0.6080089
1	0x3ecedfb8	0.4040506
2	0x3fa54caf	1.2914027
3	0x3f80caa1	1.0061837
4	0x3ff1cb2d	1.8890129

bn_cont.bias f4 [5]
0	0x3e386cb9	0.18010224
1	0xbf6595b4	-0.89681554
2	0xbfd38a8c	-1.6526656
3	0xbf26b3e5	-0.6511825
4	0x40040a1b	2.0631168

bn_cont.running_mean f4 [5]
0	0x428c2965	70.08085
1	0x461be790	9977.891
2	0x4490c2c6	1158.0867
3	0x43abcb25	343.58707
4	0x424d825c	51.377304

bn_cont.running_var f4 [5]
0	0x4410f611	579.8448
1	0x4c775209	6.4833572e+07
2	0x480f28e5	146595.58
3	0x48387198	188870.38
4	0x447a639b	1001.55634

layers.0.weight f4 [100, 19]
0	0xbefb1abe	-0.4904384
1	0xbf847452	-1.0347998
2	0x4014edd2	2.3270154
3	0xbe7a8daf	-0.2446811
4	0x3f1499f3	0.5804741
5	0x3f2941bb	0.6611592
6	0xbfbffb13	-1.4998497
7	0x3faed1b9	1.3657752
8	0xbee48cce	-0.44638675
9	0x3e3ed318	0.18635213
10	0x3e217c7c	0.15770143
11	0x3e48fcd7	0.19627701
12	0xbf85b273	-1.0445083
13	0x3ed52548	0.41630006
14	0xbf0ff811	-0.56237894
15	0x3e4bb663	0.19893794
16	0x3f80d6df	1.0065573
17	0x3efa140f	0.48843428
18	0xbf9686ca	-1.1759884
19	0x3ea880e4	0.32910836
20	0xbbf42d98	-0.0074517243
21	0xbe844090	-0.25830507
22	0xbe758e5a	-0.23980084
23	0x3f0dd570	0.55403805
24	0x3f29c6ae	0.66318786
25	0xbe05dce5	-0.13072546
26	0xbec58dee	-0.38584846
27	0x40184020	2.3789139
28	0x3fb047d3	1.3771919
29	0xbfa941e9	-1.3223239
30	0x3ec00cf2	0.37509876
31	0xbed5394d	-0.4164528
32	0x3eece9af	0.46272036
33	0xbe95ba3d	-0.2924365
34	0xbf7b44bd	-0.9815176
35	0xbfe6727e	-1.800369
36	0xc01e4920	-2.4732132
37	0xbc0de6f2	-0.008661019
38	0x3ef03056	0.46911877
39	0xbfd013a1	-1.625599
40	0xbec8052c	-0.39066446
41	0x3f72c940	0.94838333
42	0xbf33074f	-0.6993303
43	0xbf314a24	-0.69253755
44	0xbd02a63f	-0.031896826
45	0x3f5a5485	0.85285217
46	0xbf2d8011	-0.6777354
47	0x3e5829bf	0.21109675
48	0x3f1980a3	0.5996191
49	0x3ed10a67	0.4082825
50	0x3f02dc2d	0.5111721
51	0xbfb389be	-1.402641
52	0x3fdb71f5	1.7144152
53	0x3fd2e9ea	1.6477635
54	0xc000fd29	-2.0154517
55	0xbfcba8c9	-1.5910884
56	0x3e859eb9	0.26097658
57	0x3ee9845d	0.45608798
58	0x3c49813f	0.012298881
59	0xbe78b9d6	-0.24289641
60	0xbecfda3a	-0.4059618
61	0x3ee13a7f	0.4398994
62	0x3e8dd11c	0.276986
63	0xbe9f405e	-0.31103796
64	0x3d0e8fba	0.034805037
65	0x3f75c655	0.96005756
66	0x3f304702	0.6885835
67	0xbef4b875	-0.4779698
68	0x3f34b2c0	0.7058525
69	0x3db980c0	0.0905776
70	0x3d7cb685	0.0616975
71	0x3e60959c	0.21932071
72	0xc0a330d3	-5.09971
73	0xbfb03125	-1.3764998
74	0xbfa164b0	-1.2608852
75	0x3f4a8c8a	0.79120696
76	0x3f0079cb	0.5018584
77	0x3f4e0a70	0.80484676
78	0xbf9e74db	-1.2379411
79	0xbed78e7d	-0.42100897
80	0x3ef437d0	0.47698832
81	0x3f41d481	0.7571488
82	0x3ee065f7	0.43827793
83	0xbdfc0e6d	-0.12307439
84	0x3f0c84b7	0.54890007
85	0x3f343d32	0.70405877
86	0x3e1606ad	0.14650984
87	0x3e897dc6	0.2685377
88	0xbf8806e7	-1.0627106
89	0x3f68ff99	0.9101501
90	0x3e575969	0.21030201
91	0xc0961a7b	-4.6907325
92	0xbf8743f0	-1.0567608
93	0xbf9041ce	-1.1270082
94	0x3f8aa762	1.0832331
95	0xbf03e253	-0.5151722
96	0x3e432245	0.19056042
97	0xbe9505ec	-0.2910608
98	0xbef42050	-0.47680902
99	0x4030a841	2.7602694
100	0x400f72a1	2.2413714
101	0x3c874c8f	0.016515998
102	0xbea615b3	-0.3243843
103	0x3fbb2043	1.461922
104	0x3fe701b6	1.8047397
105	0xbf6fc2b1	-0.9365645
106	0xbddbc3e6	-0.10730724
107	0xbf308ccf	-0.68964857
108	0x3f866810	1.0500507
109	0xbf7a71ad	-0.97829705
110	0xc03c92ee	-2.9464679
111	0x3f6230a0	0.88355446
112	0xbc0a1806	-0.008428579
113	0x3e7c8d43	0.24663262
114	0xbebbe509	-0.36698177
115	0xc00ed6f9	-2.231871
116	0x3f2624ca	0.64899886
117	0x3f51c493	0.81940573
118	0xbe1c0522	-0.15236333
119	0xbe92afb7	-0.28649685
120	0xbd1b5433	-0.037922096
121	0xbef9fcd6	-0.4882571
122	0xbe298083	-0.1655293
123	0x3ed8f9d2	0.42378098
124	0x3e103292	0.14081791
125	0x3f04c09e	0.5185641
126	0x3c609dc6	0.013709491
127	0xbf5228d6	-0.8209356
128	0x3fa5bdcb	1.2948545
129	0x3fb99976	1.4499958
130	0xc00ca676	-2.19766
131	0xbfe4f9ec	-1.788877
132	0x3ef3a019	0.47583082
133	0x3eb8dba6	0.36105078
134	0xbe78e344	-0.24305445
135	0x3e9c1294	0.30482924
136	0x3e0cf3f0	0.1376493
137	0xbe01f627	-0.12691556
138	0xbe97b9f0	-0.29634047
139	0xbe7bf8b8	-0.24606597
140	0x3df37fad	0.118895866
141	0x3ebdfaf9	0.3710554
142	0x3c19358c	0.0093511455
143	0xbee4e05f	-0.44702432
144	0x3f07da3b	0.5306737
145	0xbf34bbac	-0.70598865
146	0x3f460e5c	0.7736566
147	0x3ec1ae6d	0.3782839
148	0x3f0bd8b7	0.54627556
149	0x3fa1256a	1.2589543
150	0x3f30cdb7	0.69063896
151	0xc0902b33	-4.5052733
152	0xbe9a415e	-0.30127996
153	0x3f1bd06c	0.608649
154	0xbf7d1866	-0.98865354
155	0xbe25aefd	-0.16180034
156	0x3f02f144	0.5114939
157	0x3f314dcd	0.6925934
158	0x3ea8f23c	0.3299731
159	0xbf0c77b8	-0.54870176
160	0x3de121dc	0.10992786
161	0xbdc83c7d	-0.09777162
162	0x3e707bc2	0.2348471
163	0xbe23dc02	-0.16001895
164	0xbf17b3a1	-0.59258467
165	0x3f14ed55	0.5817464
166	0x3ea6e067	0.3259308
167	0xbfefdeea	-1.8739903
168	0xbf8f0b2f	-1.1175288
169	0xbfbf8244	-1.4961629
170	0x3f617fa9	0.8808542
171	0x3f7ca670	0.98691463
172	0x3e89f142	0.26941878
173	0xbe8aa307	-0.27077505
174	0xbf39b727	-0.72545093
175	0x3f67cc56	0.90546167
176	0x3f32e552	0.69881165
177	0xbeeb30df	-0.45935723
178	0xbdb32a16	-0.08748262
179	0x3f8e82da	1.1133683
180	0x3edaad5e	0.42710394
181	0xbdf3bb86	-0.11901002
182	0x3d811964	0.06303671
183	0xbf03e5a7	-0.51522297
184	0x3dbaccf0	0.0912112
185	0x3f2c1cd6	0.672315
186	0xbf517a80	-0.81827545
187	0x3f7de94c	0.9918411
188	0x3f488b69	0.78337723
189	0xc0556fb3	-3.3349426
190	0xbdc16ea0	-0.09444928
191	0x3e2aa422	0.16664174
192	0xbd3c9cb9	-0.0460479
193	0xbdf0c136	-0.11755602
194	0x3cb8a884	0.022541292
195	0x3ec249b4	0.37946856
196	0x3f5e80b1	0.8691512
197	0xbe27441c	-0.16334575
198	0xbf81ee8c	-1.0150924
199	0x3f5d51a9	0.8645273
200	0x4011182f	2.267101
201	0xbf8317b9	-1.0241615
202	0xbc99ac91	-0.018759044
203	0xbe70e765	-0.2352577
204	0xbfaa52af	-1.3306483
205	0x3f4cd831	0.8001738
206	0x3f39524a	0.7239119
207	0x3f172bee	0.59051406
208	0xbfbda065	-1.4814574
209	0x3f378069	0.71680313
210	0x3f280a5b	0.656408
211	0xbf801ab4	-1.0008149
212	0xbcfe10c8	-0.031013861
213	0x3e9a07b9	0.30084017
214	0x3f3020e9	0.68800217
215	0x3e92e319	0.28688887
216	0xbf4f2a4b	-0.8092391
217	0x3eefddd6	0.46848935
218	0x3efd37fd	0.49456778
219	0x3e491aa4	0.19639069
220	0x3f03cc26	0.5148338
221	0xbf3bf90b	-0.73426884
222	0x3f78e360	0.97221947
223	0x3e85c781	0.26128772
224	0xbfe546d5	-1.7912241
225	0xbf7f5b95	-0.9974912
226	0xbfd5caea	-1.670255
227	0x3f68615c	0.9077356
228	0x3e6d654a	0.2318317
229	0xbdf41b07	-0.119192176
230	0xbec6359f	-0.38712785
231	0x3c901bf3	0.017591452
232	0x3f3cae41	0.7370339
233	0x3e8d04a2	0.27542597
234	0x3d211862	0.039329894
235	0xbe3271b4	-0.17426187
236	0x3eacfb32	0.33785397
237	0x3edbb317	0.42910072
238	0xbf681cc8	-0.90668917
239	0x3f953412	1.1656516
240	0xbebb2c68	-0.36557317
241	0x3ebc6b3f	0.36800572
242	0x3e33f6a6	0.17574558
243	0xc01f154b	-2.4856746
244	0xbfb0b216	-1.3804348
245	0xbfbda71a	-1.481662
246	0x3f39065f	0.72275347
247	0xbda10c1f	-0.0786364
248	0x3ebca6e2	0.3684607
249	0xbf222e2d	-0.6335171
250	0xbf0eadbe	-0.5573386
251	0x3e8831fa	0.2660063
252	0x3d91a8e9	0.07112295
253	0x3e563dcb	0.2092201
254	0xbddf224a	-0.10895212
255	0x3f0c8449	0.5488935

layers.0.bias f4 [100]
0	0x404ff1c5	3.2491314
1	0xbf3178be	-0.6932486
2	0xbfdb79e0	-1.7146568
3	0x405617d1	3.3452036
4	0x40330281	2.7970278
5	0xc02e4acc	-2.7233152
6	0xbf7ed8e2	-0.99549687
7	0x3ec97f32	0.39354855
8	0x40bb7098	5.8574944
9	0x3fb672cf	1.4253787
10	0x408bcf27	4.369037
11	0x40c08ec0	6.0174255
12	0x40c79919	6.2374387
13	0x404c40c9	3.1914542
14	0x404022b6	3.0021186
15	0x3fa84b95	1.3148066
16	0x40747f50	3.8202705
17	0xc0744b7c	-3.8171072
18	0x3e72f71d	0.23727079
19	0xc0141027	-2.3134859
20	0x404953a5	3.1457303
21	0xbf87e394	-1.0616326
22	0xc015df9d	-2.3417733
23	0xbfeea949	-1.8645412
24	0xbfbd735f	-1.4800833
25	0xbff42ddd	-1.9076496
26	0xbff8a819	-1.9426299
27	0x3f15a593	0.5845577
28	0x3f91bba0	1.1385384
29	0xc032159d	-2.7825692
30	0x4045de9d	3.0917122
31	0xc011a8dd	-2.2759316
32	0xbd15e077	-0.03659102
33	0x40c18baf	6.048301
34	0x40184d5e	2.379722
35	0xbff2c939	-1.8967658
36	0xbebf215f	-0.37330148
37	0xbe25463b	-0.16140072
38	0x3f8d04b8	1.1017065
39	0x402b2970	2.6744041
40	0x401aff3e	2.4218287
41	0x40add57d	5.4323106
42	0xbfabbe75	-1.3417498
43	0x40ad6085	5.418032
44	0xbfb537ca	-1.415765
45	0x3eea2c28	0.45736814
46	0x404a47ce	3.1606326
47	0x40aa699d	5.3253922
48	0x403de734	2.9672365
49	0x403a4e92	2.9110456
50	0xc0355211	-2.833134
51	0xbfebe7a7	-1.843007
52	0xc0503aa0	-3.2535782
53	0x4034ca8c	2.8248625
54	0x405c1318	3.4386654
55	0x40c5e1ca	6.183812
56	0xc0651a21	-3.5797198
57	0x405214b0	3.2825127
58	0xbf0d6c8c	-0.55243754
59	0xbff1699a	-1.8860352
60	0x40ce31bc	6.443571
61	0x4076398a	3.847262
62	0xbfa7df41	-1.3115007
63	0xc02024ad	-2.5022385
64	0xc077b912	-3.8706708
65	0x40c64ff0	6.197258
66	0x3f5e1997	0.86757797
67	0x4050fc31	3.2653925
68	0x402bbe13	2.6834762
69	0x3ff5e2f6	1.9209888
70	0x4042885e	3.0395732
71	0x40b42844	5.629915
72	0xc02fdeae	-2.7479663
73	0x405727d7	3.3618066
74	0xbfc44a50	-1.5335178
75	0x404e62ce	3.2247806
76	0x40d64082	6.6953745
77	0xbf170be9	-0.5900255
78	0x3f81870f	1.0119342
79	0x3f953deb	1.1659521
80	0xbfda1d70	-1.7040234
81	0x3b5fc92b	0.0034147005
82	0xbfc02573	-1.5011429
83	0x3f82f8d7	1.023219
84	0xbf759527	-0.95930713
85	0xbfea9315	-1.8326136
86	0x3f6db2d3	0.9285099
87	0x40b9d9a0	5.8078156
88	0x3f623b2f	0.88371557
89	0x4062f37a	3.5461106
90	0x3e9d7982	0.30756766
91	0x4063196a	3.5484262
92	0x3df7ade5	0.120937146
93	0xbf8b5496	-1.0885189
94	0x401df771	2.4682276
95	0xbf6205fe	-0.88290393
96	0x40a94343	5.2894607
97	0xc0963dc4	-4.6950397
98	0xc039cfe1	-2.903313
99	0x4059c84f	3.4028509

layers.2.weight f4 [100]
0	0xbe86ab57	-0.26302597
1	0x3e9be72d	0.3044981
2	0x3f0072a6	0.5017494
3	0x3e68fe81	0.22753336
4	0x3e8af642	0.27141005
5	0x3f35bb65	0.70989066
6	0x3eba6fe7	0.364135
7	0x3f30af6c	0.6901767
8	0x3e76ffc8	0.2412101
9	0x3e934d2f	0.28769824
10	0x3e68eb48	0.22746003
11	0x3e816e77	0.2527959
12	0x3e86c42b	0.2632154
13	0x3e3a9763	0.18221812
14	0xbe97a2b7	-0.2961633
15	0xbecb2d09	-0.39682797
16	0xbe52bf7f	-0.20580862
17	0x3ed849e4	0.42243874
18	0x3ea5d80e	0.323914
19	0x400119d0	2.0172005
20	0x3e472790	0.19448686
21	0xbeb5f340	-0.35537148
22	0xbfc0cb79	-1.5062095
23	0x3ea57585	0.32316223
24	0x3e8ef261	0.27919295
25	0x3fad3ed4	1.3534799
26	0x3f3813d4	0.71905255
27	0x3f1535d1	0.5828524
28	0x3ea8de34	0.32982028
29	0x3ead7695	0.33879533
30	0x3e705d3d	0.23473068
31	0x3ee6cd01	0.4507828
32	0xbf2615d9	-0.64877087
33	0x3e6ba52b	0.23012225
34	0x3e8d402d	0.27588025
35	0x3ea01e6a	0.31273204
36	0x3eea045c	0.4570645
37	0xbed61bf0	-0.4181819
38	0x3eb45b25	0.35225788
39	0x3e92d6f9	0.28679636
40	0x3e54b0d0	0.20770574
41	0x3e8a90bc	0.2706355
42	0x3ebc86ce	0.36821598
43	0xbe642387	-0.22279178
44	0x3fac3ac2	1.3455431
45	0x3e994e27	0.29942438
46	0x3e997196	0.29969472
47	0x3e923c3f	0.2856159
48	0x3e8884cc	0.26663816
49	0x3e8e3578	0.27775168
50	0x3eb923e6	0.361602
51	0x3f454852	0.7706348
52	0x3e8ae2c6	0.2712614
53	0x3e98ff4a	0.2988227
54	0x3e4c5fd6	0.19958434
55	0x3e5f3dd3	0.21800928
56	0x3e95735b	0.29189572
57	0x3e751c1f	0.23936509
58	0x3e5e93ab	0.21736018
59	0x3e622ea4	0.22088104
60	0x3e747db0	0.23876071
61	0x3e8a8985	0.27058044
62	0x3f8bff71	1.093733
63	0x3ef80c3d	0.48446837
64	0x3ed8987a	0.4230383
65	0x3e3da6ef	0.18520711
66	0x3e728d36	0.2368668
67	0x3e75d402	0.24006656
68	0x3ec040d6	0.37549466
69	0x3e60d613	0.21956663
70	0x3e82f528	0.25577664
71	0x3e61530e	0.22004339
72	0x3ebc448b	0.36771044
73	0x3e3621a0	0.17786264
74	0x3e8939d3	0.2680193
75	0x3e86eb8d	0.26351586
76	0x3e92d109	0.28675106
77	0x3efb5031	0.4908462
78	0x3e6e43bd	0.23268028
79	0x3e64af47	0.22332488
80	0x3f4395f3	0.7640068
81	0x3e80290e	0.25031322
82	0x3f04d29e	0.51883876
83	0x3e9ee8d6	0.31037015
84	0x3e5120f1	0.20422722
85	0x3f9a9ada	1.2078507
86	0x3f01f6ef	0.50767416
87	0x3e98e190	0.2985959
88	0x3f19ba21	0.60049635
89	0x3e3e34af	0.18574785
90	0xbf626e90	-0.88449955
91	0x3e5fc587	0.21852694
92	0xbe981dec	-0.2971033
93	0x3fe8dac6	1.8191764
94	0x3f09dde6	0.53854215
95	0x3e79d37f	0.24397086
96	0x3ea0623b	0.31324944
97	0x3f1a6d92	0.6032344
98	0xbed6b620	-0.41935825
99	0x3e4543c7	0.19264136

layers.2.bias f4 [100]
0	0x3c5d1b17	0.013495228
1	0x3de2223a	0.110416844
2	0x3e913670	0.28361845
3	0xbba4a232	-0.005024218
4	0x3e4e3a66	0.20139465
5	0x3e7d2c01	0.24723817
6	0x3ebda005	0.37036148
7	0x3df049bc	0.11732814
8	0x3dfb0269	0.12256319
9	0x3d4fde0d	0.050748874
10	0xbcdb14a3	-0.026743239
11	0x3e0ba88f	0.13638519
12	0x3d1d4bf0	0.038402498
13	0x3d68eb2d	0.056864906
14	0xbcf5c8c6	-0.030002963
15	0xbe0938b4	-0.13400537
16	0x3ce13a81	0.027493717
17	0x3c832b8a	0.016011972
18	0x3e17aa8d	0.14811154
19	0x3cbde1c3	0.02317894
20	0xbd6eb686	-0.058279537
21	0xbeaa5b39	-0.33272722
22	0x3d4211eb	0.04738037
23	0x3d9f22b1	0.07770289
24	0x3e2aef9b	0.16692965
25	0xbcddf7fe	-0.027095791
26	0xbd88beed	-0.06677041
27	0x3dcf160f	0.10111629
28	0xbc09a4b3	-0.008401084
29	0x3d0b2d17	0.033978548
30	0x3d51b858	0.051201195
31	0xbcc2f25d	-0.023797208
32	0xbe026220	-0.12732744
33	0x3d392e21	0.045210008
34	0xbc7488d4	-0.0149252005
35	0x3d7ae5aa	0.06125418
36	0x3d25d691	0.04048783
37	0xbe6301e7	-0.22168694
38	0x3d9b586e	0.07585226
39	0x3e158eb0	0.14605212
40	0xbc33f4ec	-0.010983687
41	0x3e384018	0.179932
42	0x3e2c324a	0.16816059
43	0xbe0f273e	-0.13979813
44	0xbc12636b	-0.008934836
45	0xbcad0549	-0.021120684
46	0x3e454cfc	0.19267648
47	0x3e21adff	0.1578903
48	0x3dd28841	0.102798946
49	0x3ddf7e75	0.10912792
50	0x3d944eb7	0.07241576
51	0x3d7edc40	0.062221766
52	0xbc35c959	-0.011095368
53	0x3e0d82f0	0.1381948
54	0x3d9aec75	0.07564632
55	0x3d99f016	0.07516496
56	0xbd2873b0	-0.041125953
57	0xbcde67d5	-0.02714912
58	0xbb9367d2	-0.0044984603
59	0x3d9be847	0.07612663
60	0x3e076803	0.13223271
61	0xbd992321	-0.074774034
62	0x3c63c139	0.013901048
63	0xbe2f013e	-0.17090318
64	0x3d011862	0.031517394
65	0x3dc0bcd0	0.09411013
66	0x3adffc21	0.001708869
67	0xbdf5ed36	-0.12008135
68	0x3daa3338	0.083105505
69	0xbd3eb1f1	-0.046556417
70	0x3b60d571	0.0034306908
71	0x3d596f01	0.053084377
72	0xbd87d77a	-0.06632896
73	0x3d16109e	0.03663694
74	0xbdf6d1ec	-0.12051758
75	0xbd5807b7	-0.052741732
76	0x3cc5d8db	0.024151256
77	0x3e765143	0.24054436
78	0x3dfe360d	0.12412653
79	0x3cc79dde	0.02436727
80	0x3d3fc51e	0.046818845
81	0xbd9c30bd	-0.076264836
82	0xbcfc4a88	-0.030797258
83	0x3c87a666	0.016558837
84	0x3d272fae	0.040816955
85	0x3d9d38d1	0.076768525
86	0x3d21f4e3	0.039540183
87	0x3e11b5d2	0.14229515
88	0x3ea5aecd	0.32359925
89	0x3dd7b650	0.1053282
90	0xbd8f5cbb	-0.07000109
91	0x3d73e63a	0.059545733
92	0xbe59e86f	-0.21280073
93	0x3d8391ad	0.0642427
94	0x3efc4fdd	0.4927968
95	0x3da383fb	0.07984158
96	0x3e01c9e7	0.12674676
97	0x3d9201f8	0.07129282
98	0xbd81f34e	-0.06345235
99	0x3b921bea	0.004458894

layers.2.running_mean f4 [100]
0	0x3f021fee	0.5082997
1	0x40b3bad1	5.6165547
2	0x3ff75f8e	1.9326036
3	0x414be178	12.742546
4	0x4149b41e	12.606474
5	0x3f41be9a	0.7568146
6	0x406cea97	3.7018182
7	0x3d9567b8	0.072951734
8	0x4150769c	13.028957
9	0x3ea4dab4	0.32198107
10	0x3f5823a9	0.84429413
11	0x4152ac37	13.167045
12	0x4159a8a7	13.603675
13	0x4147e9b2	12.4945545
14	0x3eab7a98	0.3349197
15	0x3e9c720c	0.3055576
16	0x3f6fcb62	0.9366971
17	0x3c55cc57	0.013049207
18	0x40ba529e	5.822585
19	0x3b10d04b	0.0022096809
20	0x3f18d446	0.59698904
21	0x408f0f4e	4.4706182
22	0x038e47c6	8.362488e-37
23	0x3eb4019e	0.35157484
24	0x40a0351a	5.006482
25	0x3ae164c8	0.0017196173
26	0x00000004	6e-45
27	0x3dad9b0f	0.08476841
28	0x3dd5533d	0.10416267
29	0x3e6d5377	0.2317637
30	0x414bb56b	12.7317915
31	0x00000004	6e-45
32	0x3ef23bbc	0.473112
33	0x41480551	12.501298
34	0x3e9d4598	0.30717158
35	0x3db3658c	0.08759603
36	0x3de6cbce	0.112693414
37	0x40d4feb9	6.656094
38	0x3e3a32b0	0.18183398
39	0x414072bc	12.028011
40	0x3e79ff84	0.24413878
41	0x414b17b2	12.693285
42	0x00000004	6e-45
43	0x414f5a39	12.959527
44	0x3baac1ab	0.0052110753
45	0x4095719b	4.670118
46	0x414efff5	12.9374895
47	0x41481833	12.505908
48	0x4147f5a2	12.497469
49	0x414376b9	12.216485
50	0x3c49711e	0.012295036
51	0x3cdc8841	0.02692044
52	0x3cadf31d	0.02123409
53	0x413ee45f	11.930755
54	0x414c0e90	12.753555
55	0x415a24df	13.634002
56	0x3e83d85c	0.25751007
57	0x3f0c3918	0.5477462
58	0x40b1379e	5.538039
59	0x3a6bab63	0.0008990077
60	0x415c4e46	13.76911
61	0x3f5ced3f	0.8629951
62	0x00000004	6e-45
63	0x00000004	6e-45
64	0x3c8cc7f6	0.017185193
65	0x4153bb2a	13.233194
66	0x3e97bc92	0.29636055
67	0x3f2022bf	0.6255302
68	0x3e46ccb3	0.19414024
69	0x4136f17a	11.433954
70	0x3ed1786f	0.40912196
71	0x4152c147	13.172187
72	0x3ec79bf3	0.38986167
73	0x414e8247	12.906806
74	0x3d98d893	0.07463183
75	0x3f15d4b4	0.58527684
76	0x4153de1a	13.241724
77	0x405012e7	3.2511537
78	0x3eaae940	0.3338108
79	0x3e91633c	0.28396022
80	0x00000004	6e-45
81	0x3e21e39c	0.15809482
82	0x00000004	6e-45
83	0x3e497763	0.19674449
84	0x409afe1e	4.84352
85	0x3c83430e	0.016023185
86	0x3deb3067	0.114838414
87	0x415c350e	13.762953
88	0x3fe5aefc	1.7944026
89	0x414e5bc3	12.897403
90	0x3d494729	0.04914013
91	0x414e2f55	12.886556
92	0x40cf84db	6.4849677
93	0x3c3f4f5a	0.011676634
94	0x4043b6a9	3.0580237
95	0x40aa447d	5.3208604
96	0x414e1150	12.879227
97	0x3c31fa40	0.010862887
98	0x3f0ea01b	0.5571305
99	0x414be0b1	12.742356

layers.2.running_var f4 [100]
0	0x3f7d8981	0.9903794
1	0x413a931f	11.660918
2	0x4085b2c1	4.1780705
3	0x41432347	12.196113
4	0x419d88ac	19.691734
5	0x40477a2c	3.1168318
6	0x40f63722	7.69423
7	0x3eb63866	0.35589904
8	0x4171feba	15.124689
9	0x3f50297d	0.81313306
10	0x3fbc626d	1.4717537
11	0x41888e02	17.06934
12	0x412a8da3	10.659579
13	0x41589cff	13.538329
14	0x3f3594d3	0.7093021
15	0x3f4a1485	0.7893756
16	0x3fd715b2	1.6803496
17	0x3d027914	0.03185375
18	0x41290a3f	10.5650015
19	0x3b61d0ed	0.0034456805
20	0x3f74375a	0.9539696
21	0x411d6b37	9.8386755
22	0x038bd690	8.218947e-37
23	0x3f3f43db	0.74712914
24	0x414f71e4	12.965305
25	0x3b087b27	0.0020825358
26	0x00000004	6e-45
27	0x3ed36716	0.41289586
28	0x3eba94f0	0.36441755
29	0x3ebcd030	0.36877584
30	0x417a464b	15.642161
31	0x00000004	6e-45
32	0x3f9e85fc	1.2384639
33	0x4122e770	10.181503
34	0x3f8925e7	1.0714692
35	0x3e8e5ce2	0.2780524
36	0x3f0713ca	0.5276457
37	0x41b77469	22.93184
38	0x3f3412aa	0.7034098
39	0x41797484	15.590946
40	0x3f3cd947	0.7376904
41	0x415a09c0	13.62738
42	0x00000004	6e-45
43	0x4163c046	14.234442
44	0x3ca7505b	0.020424059
45	0x4147a7e7	12.478492
46	0x417c03c4	15.750919
47	0x4188d695	17.104776
48	0x417da76d	15.853375
49	0x41591523	13.56766
50	0x3bf769ab	0.0075504384
51	0x3e38da0c	0.18051928
52	0x3c920026	0.017822336
53	0x413c894c	11.78352
54	0x412f75ae	10.96623
55	0x413c9ab4	11.787769
56	0x3ebc4df2	0.36778218
57	0x3f81f3ca	1.0152524
58	0x417bd702	15.739992
59	0x3abeae8c	0.0014547869
60	0x41468013	12.406268
61	0x3fb91457	1.4459332
62	0x00000004	6e-45
63	0x00000004	6e-45
64	0x3d5028b3	0.050820064
65	0x415b5a54	13.709553
66	0x3f32e00c	0.6987312
67	0x3f818b3c	1.0120616
68	0x3ec8d29c	0.39223182
69	0x4146b5ab	12.419353
70	0x3f5dc9d2	0.8663608
71	0x411cf042	9.808657
72	0x3ebf999c	0.37421882
73	0x412b4aab	10.7057295
74	0x3e1a49e6	0.15067253
75	0x3f7f896f	0.9981908
76	0x412b27fa	10.69726
77	0x40d1bf48	6.5546
78	0x3f4adb27	0.7924065
79	0x3f356d96	0.7087034
80	0x00000004	6e-45
81	0x3f186abf	0.5953788
82	0x00000004	6e-45
83	0x3f4f6a02	0.8102113
84	0x41273e25	10.452672
85	0x3d9a5375	0.075354494
86	0x3f113062	0.5671445
87	0x412d424d	10.828687
88	0x4091574f	4.541908
89	0x41589e51	13.538651
90	0x3e49d384	0.19709593
91	0x4131fcd9	11.12423
92	0x414c4e82	12.769167
93	0x3d8a8e65	0.06765441
94	0x40e60524	7.1881275
95	0x41325a9a	11.1471195
96	0x418476af	16.557951
97	0x3cd36cca	0.02580871
98	0x3fc9b559	1.5758468
99	0x413a4208	11.641121

layers.4.weight f4 [50, 100]
0	0x3ed32556	0.41239423
1	0x3ecf90d8	0.40540195
2	0xbd816b3e	-0.06319283
3	0xbcc1ee9e	-0.023673352
4	0x3e9a3a67	0.30122682
5	0x3e5f4c7d	0.21806522
6	0xbebd8a61	-0.37019637
7	0xc01faa43	-2.494767
8	0xbee4140a	-0.4454654
9	0xbf9363d5	-1.1514841
10	0xbf005599	-0.5013061
11	0x3cf611b5	0.03003774
12	0x3e8c4b3e	0.27401155
13	0x3e6be974	0.23038274
14	0x3eba1e85	0.3635141
15	0x3fb5490c	1.4162917
16	0xbd808907	-0.06276136
17	0xbf406cad	-0.75165826
18	0xbecdedd0	-0.402205
19	0xbf2623ec	-0.6489856
20	0x3c7a447a	0.015275115
21	0xbe72453f	-0.23659228
22	0xbf248852	-0.6427051
23	0x3eeb502b	0.459596
24	0x3ecf04b3	0.40433273
25	0xbf019cb9	-0.50629765
26	0xbd9ae05e	-0.07562326
27	0xc015b726	-2.3393035
28	0xbe378595	-0.17922051
29	0x3f032f45	0.51244
30	0x3efd0b0c	0.4942249
31	0xbe7fd287	-0.24982654
32	0x3ebd438f	0.36965606
33	0xbed7a07c	-0.42114627
34	0xbf01563f	-0.50522226
35	0xbee1017d	-0.43946448
36	0xbf2ebfcb	-0.682614
37	0xbeb32bef	-0.34994456
38	0xc0116d75	-2.2723057
39	0x3dd83902	0.105577484
40	0x3d91fe0f	0.07128536
41	0x3f084180	0.53224945
42	0xbf5019e9	-0.81289536
43	0xbdb9d3dc	-0.09073612
44	0xbf475fd3	-0.7788059
45	0x3f3d1c98	0.73871756
46	0xbebafcb5	-0.36520925
47	0x3e88f2bb	0.2674769
48	0xbec73d32	-0.38913876
49	0xbe548d17	-0.20756947
50	0x3fba2016	1.4541042
51	0xbf08d31f	-0.53447145
52	0xbdb8477d	-0.0899801
53	0xbea1ee6e	-0.3162722
54	0x3efd45df	0.4946737
55	0x3ec668c8	0.38751817
56	0x3e675862	0.22592309
57	0x3ea8d075	0.3297154
58	0x3f042c6f	0.516303
59	0xbc81693a	-0.015797246
60	0xbce821f5	-0.028336504
61	0x3e673b18	0.22581136
62	0xba99ecce	-0.0011743547
63	0x3e9788f8	0.29596686
64	0xbf83e291	-1.0303518
65	0x3d88f016	0.06686418
66	0xbfb2fc79	-1.3983299
67	0xbe3dea3a	-0.18546382
68	0xbe60999c	-0.21933597
69	0xbe8fd09b	-0.2808884
70	0xbed6447c	-0.41849124
71	0xbd9ebd1f	-0.07750916
72	0x3f798c09	0.974793
73	0x3ddd2075	0.10797206
74	0x3ce3c247	0.0278026
75	0xbccba802	-0.024860386
76	0x3f268425	0.65045387
77	0x3e69c497	0.228289
78	0xbf447ed2	-0.7675601
79	0xbf739ada	-0.9515816
80	0xbf2c8f89	-0.6740652
81	0xbca106a8	-0.019656494
82	0x3f53fbfb	0.82806367
83	0xc00c3cbd	-2.1912072
84	0xbe6dae59	-0.2321104
85	0xbeb0d56a	-0.34537822
86	0xc00ac11c	-2.1680365
87	0x3e8fd32f	0.28090808
88	0x3dcafabc	0.09911105
89	0xbe510398	-0.20411527
90	0xbdc25f6a	-0.09490855
91	0xbd6e3b5b	-0.058162075
92	0xbe2b7321	-0.16743137
93	0xbea89c78	-0.32931876
94	0x3e121842	0.14267066
95	0x3e1e5d96	0.15465388
96	0x3ddb7a4c	0.10716686
97	0x3f48e4e0	0.78474236
98	0xbe8277ed	-0.2548212
99	0x3daff9cd	0.085925676
100	0xbe00516d	-0.12531061
101	0xbf9b381c	-1.2126498
102	0xc01a7d06	-2.4138808
103	0x3f327739	0.6971317
104	0xbebbc223	-0.36671552
105	0xbf9531d5	-1.1655833
106	0xc006ab7d	-2.1042168
107	0x3e921e69	0.28538826
108	0xbe3c6159	-0.1839651
109	0x3e86cf25	0.26329914
110	0xbe04ce9e	-0.12969443
111	0xbfc50e7b	-1.5395044
112	0x3f56295f	0.8365688
113	0xbead64aa	-0.33865863
114	0x3d7356a8	0.059408814
115	0xbe948e7e	-0.29014963
116	0x3f27a3cd	0.65484315
117	0x3eb80217	0.35939094
118	0xbfc1ae00	-1.5131226
119	0xbfb9daa5	-1.451985
120	0x3e1dedfe	0.15422818
121	0x3fdde984	1.7336888
122	0x3fdebce2	1.7401392
123	0xbfb2d5fa	-1.397155
124	0xbff89ee9	-1.9423496
125	0xbfe7e223	-1.8115886
126	0xbf29076d	-0.66026956
127	0xbe3af705	-0.18258293
128	0x3e02fbdc	0.12791389
129	0xbf007229	-0.50174195
130	0x3c020843	0.00793654
131	0x3f5f0a5a	0.8712517
132	0x40823669	4.069142
133	0xbecc938e	-0.39956325
134	0xbf420fcb	-0.7580535
135	0x3f50f00c	0.8161628
136	0x3dea9e50	0.11455977
137	0x3f8cb832	1.0993712
138	0x3e7ee11e	0.24890563
139	0xbf72ad03	-0.94795245
140	0x3edd3015	0.43200746
141	0xbe82be59	-0.2553585
142	0xbf4eb25d	-0.8074091
143	0xbe1cd9c5	-0.15317447
144	0xc0079be4	-2.1188898
145	0xbde1e076	-0.11029141
146	0xbf557c04	-0.8339236
147	0xbe9deb90	-0.30843782
148	0xbf0aed90	-0.5426874
149	0xbf0a6a30	-0.5406828
150	0x3ec6b534	0.38810122
151	0x3f175a57	0.5912222
152	0xbc6fdce8	-0.0146400705
153	0xbfc3d1b4	-1.5298371
154	0xbec227ab	-0.3792089
155	0x3eb55d8f	0.35422942
156	0x3f80dee9	1.0068027
157	0x3cdf94b3	0.027292585
158	0x3f08eee8	0.5348954
159	0x3f250727	0.6446404
160	0xbf52a381	-0.8228074
161	0x3dbf7df2	0.09350194
162	0xbe9a6c65	-0.30160823
163	0x3ee8be13	0.45457515
164	0x3e3272bc	0.1742658
165	0xbf08c903	-0.5343172
166	0x3ecc0605	0.39848343
167	0xbd9b4039	-0.07580609
168	0xbbbe05ee	-0.0057990467
169	0x3e886650	0.26640558
170	0xbf213e92	-0.629861
171	0xbeeb93b9	-0.4601114
172	0x3fa6e381	1.3038179
173	0xbf383b36	-0.7196535
174	0x3e82639d	0.25466624
175	0xbf5ba42d	-0.8579739
176	0x3f263b78	0.6493449
177	0xc0008a02	-2.0084233
178	0x3f0c102e	0.5471219
179	0xbcb91706	-0.022593986
180	0xbf437e85	-0.7636493
181	0x3f8ac652	1.0841773
182	0xbf04200b	-0.51611394
183	0x3ecbc0a0	0.397954
184	0xbddd029a	-0.10791512
185	0x3f50c655	0.8155263
186	0x3e917afc	0.28414142
187	0xbfac2500	-1.3448792
188	0xc0a3762f	-5.1081767
189	0xbeac43ac	-0.3364538
190	0x3ec5ebb7	0.386564
191	0xbdffb1e7	-0.12485104
192	0x3fc80c64	1.5628781
193	0xbf4117d6	-0.75426996
194	0xc087ab89	-4.2396894
195	0xbfa70b77	-1.3050374
196	0xbf6b8575	-0.92000514
197	0x3eb869c1	0.36018184
198	0x3e33f6a8	0.1757456
199	0xbe6aab2d	-0.22916861
200	0xbe17bc9d	-0.14818044
201	0x3f60edff	0.87863153
202	0xbe17c5b6	-0.14821514
203	0xbd23d030	-0.039993465
204	0x3f020d22	0.5080129
205	0x3dcf1e33	0.10113182
206	0xbe72208c	-0.23645228
207	0xbfed8578	-1.8556356
208	0xbcacd634	-0.021098234
209	0xbf7f5cd2	-0.9975101
210	0x3eb7a539	0.35868242
211	0x3e499d9f	0.19689034
212	0x3dc6d595	0.09708706
213	0xbe330731	-0.17483212
214	0x3f676184	0.9038317
215	0x3fb0f089	1.3823406
216	0x3e247e05	0.16063698
217	0xbf88419d	-1.0645024
218	0x3cfaaea6	0.030600857
219	0xbf01aaff	-0.50651544
220	0xbd3e6d73	-0.046491098
221	0x3eb8f3ba	0.3612345
222	0x3ebfe366	0.3747818
223	0x3e917854	0.28412116
224	0x3ed8089c	0.42194068
225	0x3f3fa236	0.7485689
226	0xbdab8eae	-0.08376823
227	0xbffeac07	-1.9896249
228	0x3e9827f3	0.2971798
229	0x3f39af8f	0.72533506
230	0x3e4a95b6	0.19783673
231	0xbbb7c316	-0.005607973
232	0x3d449471	0.047993127
233	0x3f3dd5fb	0.74154633
234	0xbf2bb01c	-0.67065597
235	0xbcb06b27	-0.02153547
236	0xbfa948e6	-1.3225372
237	0xbdaa9c61	-0.08330608
238	0xc03a1cdf	-2.9080122
239	0x3e3ff8c4	0.1874724
240	0xbe926eb9	-0.286001
241	0xbe3d1788	-0.18466008
242	0x3de90d4c	0.11379489
243	0x3e661e5d	0.2247252
244	0xbf6b428c	-0.9189842
245	0x3f2066ce	0.6265687
246	0xbd61c62a	-0.055120625
247	0x3e144db3	0.14482765
248	0xbe30fcb4	-0.17283899
249	0xbeabcc5c	-0.3355435
250	0x3fd2f1fd	1.6480099
251	0xbc929f2e	-0.017898168
252	0x3e756368	0.23963702
253	0xbe94b50b	-0.29044375
254	0x3d9798ca	0.07402189
255	0xbe84e36c	-0.2595476

layers.4.bias f4 [50]
0	0x40f907b3	7.78219
1	0x402e1f38	2.7206554
2	0x40e7cc12	7.243661
3	0x40c5d8b5	6.1827035
4	0x411ff5c5	9.997502
5	0x40d5cef2	6.681512
6	0x41115f13	9.0857115
7	0x40eb0042	7.3437815
8	0x406db22b	3.7139995
9	0x4124b701	10.294679
10	0x40bfb2c3	5.9905715
11	0x40e02437	7.0044208
12	0x41187a9a	9.529932
13	0x40de4526	6.945941
14	0x40cc1075	6.377009
15	0x40e1919b	7.049024
16	0x41387004	11.527348
17	0x408a043e	4.313018
18	0x411e124b	9.879466
19	0x4028fdb2	2.6404843
20	0x412e068e	10.8766
21	0x4127442c	10.454144
22	0x41408fe0	12.035126
23	0x408975fe	4.2956533
24	0x413697c8	11.412056
25	0x411a1300	9.629639
26	0x411ae0a2	9.679842
27	0x4060731f	3.5070264
28	0x4135f091	11.371232
29	0x40db5310	6.8538895
30	0x40ce9ab7	6.456386
31	0x40d28c32	6.5796137
32	0x4114f319	9.30935
33	0x410eb484	8.919071
34	0x412798f8	10.474846
35	0x40bbbb4c	5.8666134
36	0x4126e90f	10.431899
37	0x412e4796	10.892477
38	0x411fab37	9.9793005
39	0x408681de	4.203353
40	0x40b87b61	5.765061
41	0x41222126	10.133093
42	0x40cca59d	6.3952165
43	0x40aeb467	5.459522
44	0x4126c8cd	10.424024
45	0x412ed438	10.926811
46	0x41171d9f	9.444732
47	0x4130c1a0	11.047272
48	0x40c1a1a6	6.0509825
49	0x40dd8b1f	6.9232326

layers.6.weight f4 [50]
0	0x420404c7	33.004665
1	0x4207dadf	33.96374
2	0x4207cfc0	33.95288
3	0x4205e6c7	33.47537
4	0x42050cb9	33.262424
5	0x4204c79b	33.194927
6	0x42035610	32.834045
7	0x4204a394	33.159744
8	0x42069f71	33.655704
9	0x42029026	32.64077
10	0x4205790e	33.368217
11	0x4208684d	34.101856
12	0x4208d3f9	34.207005
13	0x42056587	33.349148
14	0x4204b1ee	33.17376
15	0x42068e5e	33.63903
16	0x42061dc7	33.52908
17	0x42075ad5	33.838703
18	0x42040ee6	33.01455
19	0x42084172	34.06391
20	0x4203a26b	32.90861
21	0x42059888	33.398956
22	0x4203528e	32.83062
23	0x4206aba9	33.667637
24	0x4205a1aa	33.407875
25	0x4207f34d	33.9876
26	0x42068c03	33.63673
27	0x420608ca	33.508583
28	0x420262c1	32.59644
29	0x420454c1	33.082767
30	0x4207deee	33.967705
31	0x4205f2af	33.486996
32	0x42061b79	33.52683
33	0x42047a3f	33.11938
34	0x4204b709	33.178745
35	0x4205991d	33.399525
36	0x42034f1e	32.827263
37	0x4205248a	33.285683
38	0x4205297d	33.290516
39	0x42061c00	33.527344
40	0x42069ee2	33.65516
41	0x4206693f	33.60278
42	0x4207994f	33.899715
43	0x42060176	33.501427
44	0x42062121	33.532352
45	0x4202e8d0	32.727356
46	0x4208765e	34.115593
47	0x42043cfe	33.059563
48	0x42061f45	33.530537
49	0x420503e0	33.253784

layers.6.bias f4 [50]
0	0xc27342a0	-60.815063
1	0x4273070a	60.756874
2	0xc273b7d8	-60.929535
3	0x42733f77	60.811977
4	0xc272e788	-60.726105
5	0x42739ea1	60.90491
6	0xc27316d6	-60.7723
7	0x4273a43f	60.910397
8	0x427305c0	60.755615
9	0xc273e78b	-60.976116
10	0x4272fc9f	60.7467
11	0x4273dee5	60.96767
12	0xc2732982	-60.790535
13	0x4273951d	60.89562
14	0x42736e46	60.85769
15	0x42738c33	60.886913
16	0xc273ae7a	-60.920387
17	0x427408c4	61.00856
18	0xc2734a27	-60.822414
19	0x42735b06	60.83889
20	0xc273dcfd	-60.96581
21	0xc2733b15	-60.807697
22	0xc273b56d	-60.927174
23	0x4273b2f3	60.924755
24	0xc2735793	-60.83552
25	0xc273dce7	-60.965725
26	0xc273d39a	-60.956642
27	0x42731a49	60.77567
28	0xc2733eae	-60.81121
29	0x42733c96	60.809166
30	0xc2732723	-60.78822
31	0xc272f713	-60.741283
32	0xc273dc5e	-60.965202
33	0xc273985b	-60.898785
34	0xc272cefe	-60.70214
35	0x4273fb9e	60.99572
36	0xc273cd47	-60.950466
37	0xc273252a	-60.786293
38	0xc272e507	-60.72366
39	0x42740cc1	61.012455
40	0x42739436	60.894737
41	0xc27343ab	-60.816082
42	0x4273e65b	60.974957
43	0x42731245	60.76784
44	0xc2731f8d	-60.78081
45	0xc2732298	-60.783783
46	0xc2737d48	-60.872345
47	0xc2738ac4	-60.885513
48	0x42737aa1	60.869755
49	0x42744b3f	61.073483

layers.6.running_mean f4 [50]
0	0x40fcee5c	7.9040966
1	0x3fc827a6	1.56371
2	0x40e11628	7.0339546
3	0x409cc676	4.899226
4	0x412d2428	10.821327
5	0x40a4e981	5.153504
6	0x41131c4b	9.194407
7	0x40dd32f5	6.9124703
8	0x402607f5	2.5942357
9	0x412d33c8	10.825142
10	0x40913c91	4.5386434
11	0x40df489b	6.977613
12	0x412c1725	10.7556505
13	0x40bb175e	5.8466024
14	0x40ab2617	5.3483996
15	0x40e1975d	7.049727
16	0x4146fe49	12.437081
17	0x4030890c	2.7583647
18	0x412d5971	10.834336
19	0x3feef7fa	1.8669426
20	0x41360d85	11.378301
21	0x412ac68e	10.673475
22	0x4152748e	13.153456
23	0x4044d949	3.075762
24	0x413cc378	11.797722
25	0x412503ef	10.31346
26	0x412a02d3	10.6256895
27	0x3fccde9d	1.6005436
28	0x414dc6f1	12.86107
29	0x40bc3148	5.881016
30	0x40fc5ae1	7.8860936
31	0x40c19654	6.0496006
32	0x411a91a0	9.660553
33	0x411393b1	9.223557
34	0x412e43ea	10.891581
35	0x409b50e8	4.8536263
36	0x412e670f	10.900161
37	0x413d9155	11.847981
38	0x412ef48e	10.934706
39	0x401d2d2e	2.4558825
40	0x4080b6ad	4.0222993
41	0x4125ab37	10.3543005
42	0x40b47c46	5.64017
43	0x408bef76	4.372981
44	0x4126e4ae	10.43083
45	0x413b589f	11.709136
46	0x411c8686	9.782843
47	0x413ebd33	11.921191
48	0x408fb3a8	4.4906807
49	0x40ca79f3	6.3273864

layers.6.running_var f4 [50]
0	0x410cc6a2	8.798494
1	0x41508293	13.031878
2	0x40d8cf7a	6.7753267
3	0x42266ef3	41.60835
4	0x40917e48	4.546665
5	0x423bcc3a	46.94944
6	0x40b4235c	5.6293163
7	0x421a3c72	38.55903
8	0x41f8a9f7	31.08299
9	0x40d65a17	6.6984973
10	0x42207db6	40.122765
11	0x42180f78	38.015106
12	0x429a9fbd	77.31199
13	0x42388e5f	46.139034
14	0x42240a3f	41.010006
15	0x41f0f68f	30.12039
16	0x4067d72c	3.622508
17	0x41fdb298	31.712204
18	0x413817aa	11.505777
19	0x41adc5b1	21.721529
20	0x4098b68b	4.772283
21	0x40ac110d	5.3770814
22	0x40bb4ee7	5.8533816
23	0x4227171c	41.772568
24	0x402d0002	2.7031255
25	0x40618505	3.5237439
26	0x409a7e45	4.8279138
27	0x41328bba	11.159113
28	0x41062756	8.3846035
29	0x426e3791	59.554264
30	0x422fe656	43.974937
31	0x4109800e	8.593763
32	0x40f00fbc	7.5019207
33	0x4121d7f3	10.115222
34	0x405e64d2	3.4749036
35	0x422db5ae	43.42742
36	0x40e0bfd5	7.023417
37	0x4048ec3a	3.1394181
38	0x40b50ed4	5.65806
39	0x41bcb6f0	23.589325
40	0x4232d9ab	44.712566
41	0x4034c599	2.8245604
42	0x42540663	53.006237
43	0x4234df08	45.217804
44	0x401eea0a	2.4830346
45	0x409eb55d	4.959639
46	0x42e0068f	112.01281
47	0x4076c606	3.8558364
48	0x42253180	41.29834
49	0x41e754f9	28.91649

layers.8.weight f4 [1, 50]
0	0xc2688e2d	-58.138844
1	0x42688471	58.129337
2	0xc2682c51	-58.043278
3	0x42680c20	58.01184
4	0xc268c9d3	-58.197094
5	0x4267f15e	57.98571
6	0xc2688e91	-58.139225
7	0x4267a89a	57.91465
8	0x4268795a	58.118507
9	0xc267c644	-57.94362
10	0x42686849	58.10184
11	0x4267fd81	57.997562
12	0xc268af2b	-58.171062
13	0x4267f0ca	57.985146
14	0x42681c87	58.02786
15	0x426809f8	58.009735
16	0xc2681f6b	-58.03068
17	0x4267cef5	57.952106
18	0xc2687e2a	-58.123207
19	0x42687bbd	58.12084
20	0xc267c5da	-57.943214
21	0xc268997a	-58.14988
22	0xc267d48e	-57.957573
23	0x4267d5be	57.958733
24	0xc2689806	-58.14846
25	0xc2682729	-58.038242
26	0xc2680ded	-58.0136
27	0x42685610	58.084045
28	0xc2682a49	-58.041294
29	0x426852da	58.08091
30	0xc268c937	-58.1965
31	0xc268b717	-58.1788
32	0xc2683680	-58.053223
33	0xc2684b80	-58.07373
34	0xc268c3ef	-58.19134
35	0x4267ae5d	57.920277
36	0xc26810d7	-58.016445
37	0xc2689e8b	-58.154827
38	0xc268ed2a	-58.231606
39	0x42679cde	57.90319
40	0x4267fa43	57.994396
41	0xc26874fb	-58.11424
42	0x4267d070	57.953552
43	0x42687f53	58.12434
44	0xc2687d4b	-58.122356
45	0xc26843c4	-58.066177
46	0xc26853b2	-58.081734
47	0xc2682a4f	-58.041317
48	0x4268288a	58.03959
49	0x4267a357	57.90951
