Pima Indians Diabetes Prediction/diabetes.pt (torch, 5335 bytes, 6 tensors)

weight f4 [20, 8]
0.644057 -0.6622845 0.24468085 0.014141928 -0.65327126 0.4311541 0.6014109 0.08279641
-0.19527331 0.27259907 -0.34276035 -0.16361079 0.23783162 -0.18615107 0.18725185 0.0951981
-0.15744755 -0.10001829 0.059546877 -0.4036229 0.07544518 -0.17483792 0.3208588 -0.2559216
-0.39770383 -0.01910465 0.15415145 0.17419507 0.019963453 0.17642093 -1.5613294 -0.3844405
0.26417264 -0.10538086 -0.12172225 -0.123435184 -0.18394393 -0.0153849125 -0.19067895 0.10261753
-0.37761176 0.25746992 -0.11703363 -0.014628302 0.08625574 -0.27687407 -1.3228925 -0.55140465
-0.48973802 -0.3714039 -0.2629465 -0.22182205 0.12174841 0.35464728 -1.5429348 0.51507926
-0.00036674598 0.2850125 -0.12925754 0.3078283 0.22392121 -0.18830878 0.12746222 0.2155132
-0.36909395 0.12325492 -0.39035097 0.18541493 0.032987606 -0.36875665 0.709712 0.4696808
-0.041289903 0.15983146 0.070936196 -0.3543907 -0.014375519 -0.31879267 -1.3897107 0.2538715
-0.21273683 -0.4329597 0.29923248 0.2557973 0.13838874 -0.20574221 1.4239725 -0.8430521
-0.21737969 0.26905283 -0.37866494 -0.58195925 -0.13876192 0.25002545 -0.44543687 -0.23689696
0.666039 0.18773076 -0.3188834 0.37340713 0.19785856 -0.10215365 -0.55868775 -0.3144754
-0.0014018513 -0.24538918 0.35458577 0.2735189 -0.07268921 -0.30146372 -0.75655586 0.2219844
-0.6883345 -0.0016806937 0.08323564 0.27553585 0.28327915 -0.29854578 0.9709455 -0.30997226
-0.30163497 0.3216552 0.023039427 0.14449716 -0.21267293 0.10355207 0.7969775 0.24241263
-0.20670159 0.22234796 0.011930957 0.033907264 -0.11927413 -0.23057757 -0.86114657 0.27291816
0.10648155 -0.24656753 0.032443345 -0.045393556 0.07644385 -0.13876458 0.21923432 -0.29843345
0.01190081 -0.18273912 0.2667548 -0.32452694 0.08096444 0.3214722 -1.4458766 -0.19647528
0.59465915 -0.1741368 0.1858221 -0.14589676 0.090177394 0.088901356 1.1175047 -0.103918955
00000000: ebe0 243f 7a8b 29bf 9e8d 7a3e 8cb3 673c
00000010: c93c 27bf 3bc0 dc3e 11f6 193f 2a91 a93d
00000020: baf5 47be 1b92 8b3e 497e afbe 9689 27be
00000030: 228a 733e 639e 3ebe f3be 3f3e 39f7 c23d
00000040: ee39 21be 64d6 ccbd 6de7 733d a9a7 cebe
00000050: 0183 9a3d b608 33be 9b47 a43e 2808 83be
00000060: d69f cbbe 5b81 9cbc e1d9 1d3e 3160 323e
00000070: 658a a33c b0a7 343e a4d9 c7bf 63d5 c4be
00000080: a341 873e ecd1 d7bd 8449 f9bd 96cb fcbd
00000090: cc5b 3cbe 0011 7cbc 5841 43be 2429 d23d
000000a0: 5456 c1be 19d3 833e 54af efbd 8cab 6fbc
000000b0: d9a6 b03d 70c2 8dbe 8b54 a9bf db28 0dbf
000000c0: f1be fabe a728 bebe eca0 86be 5225 63be
000000d0: 3b57 f93d 5494 b53e e37e c5bf 3cdc 033f
000000e0: d047 c0b9 29ed 913e 175c 04be ac9b 9d3e
000000f0: 9a4b 653e 04d4 40be 7585 023e 7eaf 5c3e
00000100: e2f9 bcbe 136d fc3d 15dc c7be 69dd 3d3e
00000110: 031e 073d accd bcbe b0af 353f 007a f03e
00000120: 9a1f 29bd dcaa 233e ff46 913d b372 b5be
00000130: 4c87 6bbc cb38 a3be 0ae2 b1bf 72fb 813e
00000140: afd7 59be e5ac ddbe 0035 993e ddf7 823e
00000150: c7b5 0d3e 16ae 52be bb44 b63f 43d2 57bf
00000160: c898 5ebe 4bc1 893e 5fe0 c1be 48fb 14bf
00000170: 9b17 0ebe 5603 803e 4d10 e4be 1e95 72be
00000180: 8881 2a3f 7e3c 403e af44 a3be 382f bf3e
00000190: 6f9b 4a3e ef35 d1bd 2906 0fbf eb02 a1be
000001a0: 53be b7ba 4d47 7bbe 448c b53e ab0a 8c3e
000001b0: 15de 94bd 7459 9abe a5ad 41bf e14f 633e
000001c0: b136 30bf b94a dcba 7277 aa3d 0913 8d3e
000001d0: f709 913e feda 98be e28f 783f afb4 9ebe
000001e0: e66f 9abe feaf a43e 2ebd bc3c 10f7 133e
000001f0: efc6 59be 1c13 d43d b806 4c3f 043b 783e
00000200: 95a9 53be 2faf 633e 107a 433c 58e2 0a3d
00000210: ff45 f4bd 871c 6cbe 1a74 5cbf eebb 8b3e
00000220: 0013 da3d 337c 7cbe 50e3 043d 98ee 39bd
00000230: 988e 9c3d 4d18 0ebe f67e 603e 45cc 98be
00000240: 9dfb 423c f71f 3bbe 1694 883e 6528 a6be
00000250: afd0 a53d 0198 a43e 7c12 b9bf d130 49be
00000260: 953b 183f eb50 32be 2648 3e3e f665 15be
00000270: edae b83d ea11 b63d 650a 8f3f 76d3 d4bd

bias f4 [20]
-0.15021008 -1.263342 -0.34633082 1.8767042 0.080328345 0.30522713 -0.5465663 0.3155949
0.9399193 1.8731567 0.092213 0.4424494 -0.20213704 1.5815773 -0.52065223 -1.2013366
1.2361844 -0.055208296 2.180557 -0.28958932
00000000: acd0 19be 31b5 a1bf 4652 b1be d837 f03f
00000010: 3083 a43d bb46 9c3e c5eb 0bbf a895 a13e
00000020: 8d9e 703f 99c3 ef3f 2bda bc3d ba88 e23e
00000030: 03fd 4ebe 2071 ca3f 7749 05bf 66c5 99bf
00000040: 4a3b 9e3f 1822 62bd 3f8e 0b40 0d45 94be

weight f4 [20, 20]
-0.27400738 -0.020525837 0.06890053 0.23281114 -0.18001318 0.08096086 -0.49255413 0.11665557
-0.13004394 0.15382978 1.2767637 0.21404266 0.015648074 0.03848364 0.08776381 -0.16059484
0.1867718 -0.11944218 -0.07897537 0.19087592 0.1162218 -0.04445521 0.12086203 0.1775218
0.09506208 0.21554835 -0.086065926 0.035476886 -0.17825337 0.08197538 0.7868298 0.3811682
0.06691824 -0.08593547 -0.20200756 -0.061809264 0.089688435 -0.15591198 0.24275766 -0.06840675
0.021811452 0.059231233 -0.044343825 0.041417774 0.20327401 0.0030119345 0.09981282 -0.26278177
-0.104451336 -0.15341233 0.14848824 0.19023374 -0.063616134 0.041192755 0.086677395 -0.14331238
0.017064309 0.16119269 -0.20127495 -0.21146171 -0.31202883 0.02677553 0.039913744 -0.16461283
0.142566 -0.28010884 -0.110576235 -0.1741198 0.06440529 -0.3430799 0.18884395 -0.32613525
-0.06690283 -0.15544115 -0.08093794 0.09393474 -0.022282038 0.047580063 0.061803196 0.06577925
0.45877945 -0.05785159 -0.09833631 -0.1123658 -0.18264818 -0.67233354 0.7445835 0.16238134
-1.2621795 -0.102388866 -0.82382244 0.042792767 -0.25820032 -0.010306168 0.21319063 -0.045438446
-0.15168656 -0.011349484 -0.021839177 0.13031556 0.44071716 0.03495477 -0.056102194 -0.19273396
-0.0057946146 0.08939434 0.3572922 0.18491638 0.07435276 0.025262311 -0.9315076 -0.14553112
-0.17201598 0.15555452 -0.09439358 0.099938765 0.056489125 -0.16257675 -0.028965874 0.024286112
-0.15961795 -0.028358694 0.014562437 -0.14216301 0.1057848 -0.030363405 -0.47652858 0.19243178
0.037201587 -0.08071406 1.0648386 0.116843894 -0.090632714 -0.17075951 -0.027420351 -0.14431624
0.13959481 0.1551468 0.23992178 0.12884435 0.1841594 0.046238862 -0.029995397 0.33336234
-0.12302731 -0.20693359 -1.5805628 -0.27960527 0.110751644 -0.026350558 0.3833783 -0.068488814
-0.25241882 -0.22508709 -0.26680455 0.15000126 -0.158994 -0.10309565 -0.11216427 0.13962728
-0.015069345 -0.2215684 -0.010765184 -0.054370884 -0.18361723 0.10924646 -0.1378997 -0.21202475
0.06982234 -0.0172371 0.16675274 -0.31568387 -0.0519583 -0.047785763 0.04892725 0.102710396
-0.15747668 -0.051296905 -0.07241933 -0.19763912 -0.10720165 -0.016852379 -0.10209309 -0.013494932
-0.1781485 -0.07593256 -0.112255484 -0.26215777 0.119333714 -0.050760105 0.14114448 0.11085445
0.03517154 0.14343244 -0.16285597 -0.061873056 -0.23444442 0.19816312 -0.048542257 -0.21383229
-0.59422886 -0.30697587 -0.18381537 -0.07447773 -0.17340696 -0.29320526 0.8967758 -0.29179135
0.07873579 0.04532401 0.16817054 0.5369157 -0.22649065 0.4410547 -0.15580846 0.043170948
-0.119048506 -0.19230933 0.50354797 0.6826011 -0.059967972 0.008996968 0.12904823 -0.0030314864
0.17586952 0.15514618 -0.21219763 0.19031277 0.059491567 -0.10821139 0.89696985 0.034799565
0.18390921 0.8026282 0.043846224 -0.22397092 -0.122808985 -0.1591304 -0.0700088 -0.21147649
0.020041674 0.0051489696 0.04043361 -0.2953525 -0.17202726 0.010448375 0.42091155 0.15222922
-0.08765541 -0.025176056 -0.772572 -0.14330742 0.103886664 0.1953063 0.07530834 0.10532221
00000000: b24a 8cbe cd25 a8bc b91b 8d3d 0b66 6e3e
00000010: 6055 38be cfce a53d 0e30 fcbe 1ee9 ee3d
00000020: 3d2a 05be 8e85 1d3e fe6c a33f 002e 5b3e
00000030: 6430 803c 05a1 1d3d 83bd b33d f972 24be
00000040: 1b41 3f3e 1a9e f4bd d7bd a1bd fa74 433e
00000050: b205 ee3d ab16 36bd 8386 f73d 46c8 353e
00000060: e8af c23d b5b8 5c3e 5543 b0bd 3650 113d
00000070: 0d88 36be b5e2 a73d ae6d 493f 7a28 c33e
00000080: 6e0c 893d f0fe afbd 12db 4ebe b62b 7dbd
00000090: 92ae b73d 64a7 1fbe 7795 783e d718 8cbd
000000a0: eead b23c 739c 723d dfa1 35bd afa5 293d
000000b0: 1027 503e e063 453b aa6a cc3d 558b 86be
000000c0: 95ea d5bd 1f18 1dbe 4d0d 183e a2cc 423e
000000d0: 2d49 82bd bcb9 283d eb83 b13d 7bc0 12be
000000e0: 73ca 8b3c b20f 253e 051b 4ebe 6b89 58be
000000f0: 3ec2 9fbe 5b58 db3c 987c 233d 4490 28be
00000100: d2fc 113e 6d6a 8fbe cb75 e2bd 764c 32be
00000110: ece6 833d 2ba8 afbe 4f60 413e 33fb a6be
00000120: 5a04 89bd f72b 1fbe cac2 a5bd db60 c03d
00000130: d288 b6bc 50e3 423d 5925 7d3d 45b7 863d
00000140: 24e5 ea3e caf5 6cbd 8c64 c9bd 0a20 e6bd
00000150: 2008 3bbe 0d1e 2cbf 069d 3e3f 4b47 263e
00000160: 198f a1bf 41b1 d1bd 07e6 52bf 7847 2f3d
00000170: d532 84be 34db 28bc a54e 5a3e aa1d 3abd
00000180: b953 1bbe 30f3 39bc 13e8 b2bc 7171 053e
00000190: aea5 e13e bc2c 0f3d 6acb 65bd 0d5c 45be
000001a0: c0e0 bdbb 6114 b73d 01ef b63e b85a 3d3e
000001b0: 4346 983d e8f2 ce3c 4877 6ebf 1c06 15be
000001c0: f524 30be af49 1f3e 6c51 c1bd b2ac cc3d
000001d0: 2461 673d 857a 26be d749 edbc abf3 c63c
000001e0: e372 23be 7e50 e8bc 4a97 6e3c 2e93 11be
000001f0: b4a5 d83d adbc f8bc 8efb f3be d60c 453e
00000200: b160 183d 6a4d a5bd a24c 883f da4b ef3d
00000210: a59d b9bd 95db 2ebe a5a0 e0bc a3c7 13be
00000220: f1f1 0e3e cede 1e3e 0eae 753e c6ef 033e
00000230: 4894 3c3e f664 3d3d e8b8 f5bc 78ae aa3e
00000240: bef5 fbbd 66e6 53be e24f cabf 6c28 8fbe
00000250: c2d1 e23d 20dd d7bc 294a c43e dd43 8cbd
00000260: 0a3d 81be 3b7d 66be 9b9a 88be ee99 193e
00000270: 53cf 22be d023 d3bd 61b6 e5bd 74fa 0e3e
00000280: 6ae5 76bc d4e2 62be 7460 30bc 01b4 5ebd
00000290: 2806 3cbe 9cbc df3d 9435 0dbe 041d 59be
000002a0: 04ff 8e3d d234 8dbc 3bc1 2a3e 51a1 a1be
000002b0: 3ad2 54bd 01bb 43bd f167 483d d459 d23d
000002c0: 9141 21be b41c 52bd 9650 94bd e961 4abe
000002d0: 8a8c dbbd 000e 8abc 2f16 d1bd d919 5dbc
000002e0: 8f6c 36be 8882 9bbd 34e6 e5bd 8b39 86be
000002f0: 3c65 f43d d4e9 4fbd 2e88 103e a807 e33d
00000300: 0810 103d f4df 123e b7c3 26be 9a6e 7dbd
00000310: 3312 70be 46eb 4a3e 3fd4 46bd daf6 5abe
00000320: 621f 18bf f12b 9dbe 193a 3cbe c887 98bd
00000330: 9891 31be 001f 96be 1993 653f ad65 95be
00000340: 3b40 a13d aba5 393d e634 2c3e 4f73 093f
00000350: 2aed 67be ecd1 e13e 418c 1fbe 05d4 303d
00000360: b4cf f3bd bdec 44be 85e8 003f f2be 2e3f
00000370: faa0 75bd 0568 133c 3825 043e e7ab 46bb
00000380: 2417 343e a4de 1e3e 564a 59be 5ae1 423e
00000390: 6ead 733d ef9d ddbd d19f 653f fd89 0e3d
000003a0: b252 3c3e 0b79 4d3f 1998 333d a258 65be
000003b0: 4783 fbbd 14f3 22be c660 8fbd 4b8d 58be
000003c0: 702e a43c b0b8 a83b b79d 253d 7138 97be
000003d0: ea27 30be a92f 2b3c b881 d73e fae1 1b3e
000003e0: ae84 b3bd 043e cebc 47c7 45bf 2ebf 12be
000003f0: 88c2 d43d 60fe 473e 423b 9a3d 2cb3 d73d

bias f4 [20]
0.96855927 1.2639203 -0.085710056 -0.17796022 -1.2268463 -0.7850323 0.94080204 -0.21515214
-0.07586099 -0.16300617 0.61979187 0.7767931 -0.89660156 -0.169896 -0.44108346 -1.5241885
-1.4227457 -0.14672723 0.118866906 1.3365924
00000000: 80f3 773f 24c8 a13f c188 afbd 343b 36be
00000010: 4d09 9dbf e0f7 48bf 67d8 703f d850 5cbe
00000020: 025d 9bbd 17eb 26be aeaa 1e3f eadb 463f
00000030: ae87 65bf 38f9 2dbe b1d5 e1be 9c18 c3bf
00000040: 881c b6bf aa3f 16be 7e70 f33d 7615 ab3f

weight f4 [2, 20]
0.10587217 0.31076175 -0.14511767 0.14609246 -0.7758884 0.01727052 -0.040432975 0.11780363
0.26683956 -0.10186874 0.72031385 0.088099785 -0.22326945 0.018267594 0.016021691 -0.14056206
-0.1448643 -0.061499402 0.055825476 0.32781523 -0.096944734 0.06090508 -0.09613633 0.055473384
0.46173567 0.20178764 -0.12578978 0.083017774 0.15128522 -0.16168787 -0.77232563 -0.1416121
0.079914086 0.034161054 0.07872378 0.28510556 0.27681953 0.09325552 0.056279216 -0.24721901
00000000: 82d3 d83d 2a1c 9f3e ba99 14be 4399 153e
00000010: 9fa0 46bf e87a 8d3c 0c9d 25bd 0843 f13d
00000020: 329f 883e 8fa0 d0bd 7d66 383f a96d b43d
00000030: bfa0 64be eca5 953c ec3f 833c 80ef 0fbe
00000040: 4f57 14be cce6 7bbd 41a9 643d 66d7 a73e
00000050: f68a c6bd 9b77 793d 20e3 c4bd 0f38 633d
00000060: 9e68 ec3e 6ba1 4e3e 09cf 00be 3905 aa3d
00000070: 83ea 1a3e 8191 25be 22b7 45bf c302 11be
00000080: ffa9 a33d 76ec 0b3d ef39 a13d 5bf9 913e
00000090: 4abb 8d3e c0fc be3d 0985 663d fb26 7dbe

bias f4 [2]
0.92265755 -1.2677569
00000000: 4933 6c3f dc45 a2bf
